…
To enable the following instructions: AVX2 AVX_VNNI FMA, in other operations, rebuild TensorFlow with the appropriate compiler flags.
Chemin du projet : /home/loai/Test/RSMLExtraction
Dimensions après division par 4 : 291 337
Dimensions ajustées (multiples de 32) : 288 320
754
754
603 151
Nombre d'échantillons dans le jeu d'entraînement : 603
Nombre d'échantillons dans le jeu de validation : 151
Taille des images : torch.Size([1, 288, 320])
Taille des masques : torch.Size([1, 288, 320])
----------------------------------------------------------------
        Layer (type)               Output Shape         Param #
================================================================
            Conv2d-1         [-1, 64, 144, 160]           3,136
       BatchNorm2d-2         [-1, 64, 144, 160]             128
              ReLU-3         [-1, 64, 144, 160]               0
         MaxPool2d-4           [-1, 64, 72, 80]               0
            Conv2d-5           [-1, 64, 72, 80]          36,864
       BatchNorm2d-6           [-1, 64, 72, 80]             128
              ReLU-7           [-1, 64, 72, 80]               0
            Conv2d-8           [-1, 64, 72, 80]          36,864
       BatchNorm2d-9           [-1, 64, 72, 80]             128
             ReLU-10           [-1, 64, 72, 80]               0
       BasicBlock-11           [-1, 64, 72, 80]               0
           Conv2d-12           [-1, 64, 72, 80]          36,864
      BatchNorm2d-13           [-1, 64, 72, 80]             128
             ReLU-14           [-1, 64, 72, 80]               0
           Conv2d-15           [-1, 64, 72, 80]          36,864
      BatchNorm2d-16           [-1, 64, 72, 80]             128
             ReLU-17           [-1, 64, 72, 80]               0
       BasicBlock-18           [-1, 64, 72, 80]               0
           Conv2d-19           [-1, 64, 72, 80]          36,864
      BatchNorm2d-20           [-1, 64, 72, 80]             128
             ReLU-21           [-1, 64, 72, 80]               0
           Conv2d-22           [-1, 64, 72, 80]          36,864
      BatchNorm2d-23           [-1, 64, 72, 80]             128
             ReLU-24           [-1, 64, 72, 80]               0
       BasicBlock-25           [-1, 64, 72, 80]               0
           Conv2d-26          [-1, 128, 36, 40]          73,728
      BatchNorm2d-27          [-1, 128, 36, 40]             256
             ReLU-28          [-1, 128, 36, 40]               0
           Conv2d-29          [-1, 128, 36, 40]         147,456
      BatchNorm2d-30          [-1, 128, 36, 40]             256
           Conv2d-31          [-1, 128, 36, 40]           8,192
      BatchNorm2d-32          [-1, 128, 36, 40]             256
             ReLU-33          [-1, 128, 36, 40]               0
       BasicBlock-34          [-1, 128, 36, 40]               0
           Conv2d-35          [-1, 128, 36, 40]         147,456
      BatchNorm2d-36          [-1, 128, 36, 40]             256
             ReLU-37          [-1, 128, 36, 40]               0
           Conv2d-38          [-1, 128, 36, 40]         147,456
      BatchNorm2d-39          [-1, 128, 36, 40]             256
             ReLU-40          [-1, 128, 36, 40]               0
       BasicBlock-41          [-1, 128, 36, 40]               0
           Conv2d-42          [-1, 128, 36, 40]         147,456
      BatchNorm2d-43          [-1, 128, 36, 40]             256
             ReLU-44          [-1, 128, 36, 40]               0
           Conv2d-45          [-1, 128, 36, 40]         147,456
      BatchNorm2d-46          [-1, 128, 36, 40]             256
             ReLU-47          [-1, 128, 36, 40]               0
       BasicBlock-48          [-1, 128, 36, 40]               0
           Conv2d-49          [-1, 128, 36, 40]         147,456
      BatchNorm2d-50          [-1, 128, 36, 40]             256
             ReLU-51          [-1, 128, 36, 40]               0
           Conv2d-52          [-1, 128, 36, 40]         147,456
      BatchNorm2d-53          [-1, 128, 36, 40]             256
             ReLU-54          [-1, 128, 36, 40]               0
       BasicBlock-55          [-1, 128, 36, 40]               0
           Conv2d-56          [-1, 256, 18, 20]         294,912
      BatchNorm2d-57          [-1, 256, 18, 20]             512
             ReLU-58          [-1, 256, 18, 20]               0
           Conv2d-59          [-1, 256, 18, 20]         589,824
      BatchNorm2d-60          [-1, 256, 18, 20]             512
           Conv2d-61          [-1, 256, 18, 20]          32,768
      BatchNorm2d-62          [-1, 256, 18, 20]             512
             ReLU-63          [-1, 256, 18, 20]               0
       BasicBlock-64          [-1, 256, 18, 20]               0
           Conv2d-65          [-1, 256, 18, 20]         589,824
      BatchNorm2d-66          [-1, 256, 18, 20]             512
             ReLU-67          [-1, 256, 18, 20]               0
           Conv2d-68          [-1, 256, 18, 20]         589,824
      BatchNorm2d-69          [-1, 256, 18, 20]             512
             ReLU-70          [-1, 256, 18, 20]               0
       BasicBlock-71          [-1, 256, 18, 20]               0
           Conv2d-72          [-1, 256, 18, 20]         589,824
      BatchNorm2d-73          [-1, 256, 18, 20]             512
             ReLU-74          [-1, 256, 18, 20]               0
           Conv2d-75          [-1, 256, 18, 20]         589,824
      BatchNorm2d-76          [-1, 256, 18, 20]             512
             ReLU-77          [-1, 256, 18, 20]               0
       BasicBlock-78          [-1, 256, 18, 20]               0
           Conv2d-79          [-1, 256, 18, 20]         589,824
      BatchNorm2d-80          [-1, 256, 18, 20]             512
             ReLU-81          [-1, 256, 18, 20]               0
           Conv2d-82          [-1, 256, 18, 20]         589,824
      BatchNorm2d-83          [-1, 256, 18, 20]             512
             ReLU-84          [-1, 256, 18, 20]               0
       BasicBlock-85          [-1, 256, 18, 20]               0
           Conv2d-86          [-1, 256, 18, 20]         589,824
      BatchNorm2d-87          [-1, 256, 18, 20]             512
             ReLU-88          [-1, 256, 18, 20]               0
           Conv2d-89          [-1, 256, 18, 20]         589,824
      BatchNorm2d-90          [-1, 256, 18, 20]             512
             ReLU-91          [-1, 256, 18, 20]               0
       BasicBlock-92          [-1, 256, 18, 20]               0
           Conv2d-93          [-1, 256, 18, 20]         589,824
      BatchNorm2d-94          [-1, 256, 18, 20]             512
             ReLU-95          [-1, 256, 18, 20]               0
           Conv2d-96          [-1, 256, 18, 20]         589,824
      BatchNorm2d-97          [-1, 256, 18, 20]             512
             ReLU-98          [-1, 256, 18, 20]               0
       BasicBlock-99          [-1, 256, 18, 20]               0
          Conv2d-100           [-1, 512, 9, 10]       1,179,648
     BatchNorm2d-101           [-1, 512, 9, 10]           1,024
            ReLU-102           [-1, 512, 9, 10]               0
          Conv2d-103           [-1, 512, 9, 10]       2,359,296
     BatchNorm2d-104           [-1, 512, 9, 10]           1,024
          Conv2d-105           [-1, 512, 9, 10]         131,072
     BatchNorm2d-106           [-1, 512, 9, 10]           1,024
            ReLU-107           [-1, 512, 9, 10]               0
      BasicBlock-108           [-1, 512, 9, 10]               0
          Conv2d-109           [-1, 512, 9, 10]       2,359,296
     BatchNorm2d-110           [-1, 512, 9, 10]           1,024
            ReLU-111           [-1, 512, 9, 10]               0
          Conv2d-112           [-1, 512, 9, 10]       2,359,296
     BatchNorm2d-113           [-1, 512, 9, 10]           1,024
            ReLU-114           [-1, 512, 9, 10]               0
      BasicBlock-115           [-1, 512, 9, 10]               0
          Conv2d-116           [-1, 512, 9, 10]       2,359,296
     BatchNorm2d-117           [-1, 512, 9, 10]           1,024
            ReLU-118           [-1, 512, 9, 10]               0
          Conv2d-119           [-1, 512, 9, 10]       2,359,296
     BatchNorm2d-120           [-1, 512, 9, 10]           1,024
            ReLU-121           [-1, 512, 9, 10]               0
      BasicBlock-122           [-1, 512, 9, 10]               0
   ResNetEncoder-123  [[-1, 1, 288, 320], [-1, 64, 144, 160], [-1, 64, 72, 80], [-1, 128, 36, 40], [-1, 256, 18, 20], [-1, 512, 9, 10]]               0
        Identity-124           [-1, 512, 9, 10]               0
        Identity-125          [-1, 768, 18, 20]               0
       Attention-126          [-1, 768, 18, 20]               0
          Conv2d-127          [-1, 256, 18, 20]       1,769,472
     BatchNorm2d-128          [-1, 256, 18, 20]             512
            ReLU-129          [-1, 256, 18, 20]               0
          Conv2d-130          [-1, 256, 18, 20]         589,824
     BatchNorm2d-131          [-1, 256, 18, 20]             512
            ReLU-132          [-1, 256, 18, 20]               0
        Identity-133          [-1, 256, 18, 20]               0
       Attention-134          [-1, 256, 18, 20]               0
    DecoderBlock-135          [-1, 256, 18, 20]               0
        Identity-136          [-1, 384, 36, 40]               0
       Attention-137          [-1, 384, 36, 40]               0
          Conv2d-138          [-1, 128, 36, 40]         442,368
     BatchNorm2d-139          [-1, 128, 36, 40]             256
            ReLU-140          [-1, 128, 36, 40]               0
          Conv2d-141          [-1, 128, 36, 40]         147,456
     BatchNorm2d-142          [-1, 128, 36, 40]             256
            ReLU-143          [-1, 128, 36, 40]               0
        Identity-144          [-1, 128, 36, 40]               0
       Attention-145          [-1, 128, 36, 40]               0
    DecoderBlock-146          [-1, 128, 36, 40]               0
        Identity-147          [-1, 192, 72, 80]               0
       Attention-148          [-1, 192, 72, 80]               0
          Conv2d-149           [-1, 64, 72, 80]         110,592
     BatchNorm2d-150           [-1, 64, 72, 80]             128
            ReLU-151           [-1, 64, 72, 80]               0
          Conv2d-152           [-1, 64, 72, 80]          36,864
     BatchNorm2d-153           [-1, 64, 72, 80]             128
            ReLU-154           [-1, 64, 72, 80]               0
        Identity-155           [-1, 64, 72, 80]               0
       Attention-156           [-1, 64, 72, 80]               0
    DecoderBlock-157           [-1, 64, 72, 80]               0
        Identity-158        [-1, 128, 144, 160]               0
       Attention-159        [-1, 128, 144, 160]               0
          Conv2d-160         [-1, 32, 144, 160]          36,864
     BatchNorm2d-161         [-1, 32, 144, 160]              64
            ReLU-162         [-1, 32, 144, 160]               0
          Conv2d-163         [-1, 32, 144, 160]           9,216
     BatchNorm2d-164         [-1, 32, 144, 160]              64
            ReLU-165         [-1, 32, 144, 160]               0
        Identity-166         [-1, 32, 144, 160]               0
       Attention-167         [-1, 32, 144, 160]               0
    DecoderBlock-168         [-1, 32, 144, 160]               0
          Conv2d-169         [-1, 16, 288, 320]           4,608
     BatchNorm2d-170         [-1, 16, 288, 320]              32
            ReLU-171         [-1, 16, 288, 320]               0
          Conv2d-172         [-1, 16, 288, 320]           2,304
     BatchNorm2d-173         [-1, 16, 288, 320]              32
            ReLU-174         [-1, 16, 288, 320]               0
        Identity-175         [-1, 16, 288, 320]               0
       Attention-176         [-1, 16, 288, 320]               0
    DecoderBlock-177         [-1, 16, 288, 320]               0
     UnetDecoder-178         [-1, 16, 288, 320]               0
          Conv2d-179          [-1, 1, 288, 320]             145
        Identity-180          [-1, 1, 288, 320]               0
        Identity-181          [-1, 1, 288, 320]               0
      Activation-182          [-1, 1, 288, 320]               0
================================================================
Total params: 24,430,097
Trainable params: 24,430,097
Non-trainable params: 0
----------------------------------------------------------------
Input size (MB): 0.35
Forward/backward pass size (MB): 461.95
Params size (MB): 93.19
Estimated Total Size (MB): 555.50
----------------------------------------------------------------
Utilisation du device : cuda
…
